stock/checkpoint/pytorch/model_pytorch.pth (torch, 809743 bytes, 10 tensors)

lstm.weight_ih_l0 f4 [512, 5]
000000 3e 3f ef bd b8 da bd bd 98 68 ec bb f3 f9 9a bd
       -0.11681984 -0.09270233 -0.007214617 -0.07567205
000010 6f 43 44 bd 7e 86 27 bd 84 b2 1a 3d 8b 25 8c bc
       -0.047915872 -0.040899746 0.037767902 -0.017107746
000020 43 86 2c 3d d9 38 02 3d 49 97 48 bd ae 39 94 3c
       0.04212023 0.031792495 -0.0489724 0.01809391
000030 59 e3 13 bd 2c 1f 95 3c 17 c6 be 3b a3 68 a1 bd
       -0.036105487 0.01820334 0.005821954 -0.07881286
000040 dd f2 4e bd 54 84 81 3b cd f4 9c bd 50 b7 63 bd
       -0.05052458 0.0039525423 -0.076638795 -0.055594742
000050 94 ab 84 3d 4a 05 ca bb 32 cd 32 3d c3 82 a2 3d
       0.064780384 -0.0061651813 0.04365272 0.07935097
000060 9b 69 2a 39 b4 4c 3d bd 60 0f da 3d eb bd 7c 3b
       0.00016251804 -0.046215728 0.10647464 0.0038565348
000070 1a ce bb 3c 9b 09 90 3d ca 6d a1 3d b4 fb 4c bd
       0.022925425 0.07033082 0.07882269 -0.05004473
000080 37 9d dd 3d f7 5a 44 3d 38 50 c3 3d 1d 4d b8 3d
       0.10821002 0.047938313 0.09536785 0.08999083
000090 eb ab 2e 3d 58 86 24 3e 83 20 37 3c f9 79 dc 3d
       0.042644423 0.16066873 0.011177185 0.10765452
0000a0 10 b9 b2 3d 14 04 11 3e 72 01 00 bd 33 1a b1 3c
       0.08726704 0.14161712 -0.03125138 0.021618938
0000b0 75 11 02 3e a9 65 5a 3c 24 cf c6 3d 2b 21 40 3d
       0.12701972 0.013329902 0.09707478 0.04690663
0000c0 55 c0 9b 3d 21 24 44 3d 19 89 25 3d c1 a6 84 3d
       0.07605044 0.047886018 0.04041395 0.06477118
0000d0 c9 08 1a 3e 52 88 85 3d 00 fe 70 3c dd 4c 1a 3d
       0.15042414 0.06520142 0.014708996 0.03767096
0000e0 43 23 33 bd 0a aa f2 bc 7a ba 11 bd b4 70 d7 3d
       -0.0437348 -0.029622097 -0.03557823 0.10519543
0000f0 f6 5b 42 be c5 d5 28 be 02 4b a1 bd a6 c6 2c bd
       -0.18980393 -0.16487797 -0.07875635 -0.042181633
000100 e5 90 e7 bc ba 6e 53 ba 39 28 63 3d 58 b9 06 bd
       -0.028267333 -0.0008065511 0.05545828 -0.0328916
000110 d0 2c ee b8 07 36 ec 3d 7d 60 c5 3d 3e ea 25 3e
       -0.00011357071 0.115337424 0.09637544 0.16202638
000120 74 75 6a 3d 9b 3b 9d 3d cc 5c 54 bb 61 3f 93 3d
       0.05724092 0.076773845 -0.0032403944 0.07189823
000130 f0 79 f4 3d 0d ef f4 3d fc 6f a7 bc a3 2b 83 3d
       0.1193732 0.11959658 -0.02043914 0.064048074
000140 2e e7 bb 3d 72 0a fd 3c 93 59 f6 bb 60 aa 0c 3e
       0.091749534 0.03088877 -0.0075180023 0.13736868
000150 f0 5e ff 3b b4 56 f1 3d 62 1e 14 3d 60 2c db 3d
       0.0077933 0.117841154 0.036161788 0.10701823
000160 b8 26 d9 bc fd 67 32 bd 8f f9 40 bd ec 0b c5 bd
       -0.02650772 -0.043556202 -0.047112998 -0.096214145
000170 c0 9a 16 bc 51 df 1e be cf ca 89 bd 8a 61 62 3d
       -0.009192169 -0.15514876 -0.06728136 0.0552688
000180 c9 cd 9d 3b ff 7d 20 bb a5 dc 5c 3d 07 8f 07 3d
       0.0048157913 -0.0024489162 0.05392136 0.033095386
000190 2a ed c4 3d f4 13 84 3d 04 e3 a1 3d 58 6c fd 3d
       0.09615548 0.06449118 0.07904628 0.123741806
0001a0 05 06 a9 bc dc 77 85 3d ff ce e6 3d dc 43 a8 3d
       -0.020632753 0.06517002 0.1126995 0.08216068
0001b0 39 74 1f bd c6 f2 bc 3d 3d 06 a8 3d 31 0d e4 3c
       -0.038929198 0.09225993 0.08204315 0.027838321
0001c0 6c 34 e5 3d 9b e9 e1 3c 7e da b8 bc f6 0a 04 3e
       0.11191639 0.027577212 -0.022565123 0.12894806
0001d0 32 f8 af 3c 4f d2 0f bc ab 24 44 3c 56 61 0a 3e
       0.021480653 -0.008778169 0.011971633 0.13513693
0001e0 63 97 c8 bc 20 6b 84 bd 9b 0b 79 3c de 41 15 3d
       -0.02448625 -0.06465745 0.015200521 0.03643977
0001f0 91 e4 dd bd ae f9 0d bd 20 b0 2e 3d ca d7 80 3d
       -0.10834611 -0.03466194 0.042648435 0.062911585
000200 c8 8c 83 3d 5a 4e 8e 3d 79 ea 03 3e aa bd 99 3d
       0.06423336 0.06948538 0.12882413 0.07506879
000210 0c 03 23 3e 65 5e c4 3d df 14 c5 3d 1e 5b 0e 3d
       0.15919131 0.09588317 0.096231215 0.034754865
000220 14 aa 3f 3b 84 b9 36 3d 78 62 67 3d d6 9f ba 3d
       0.0029245662 0.044610515 0.05649039 0.091125175
000230 33 45 c0 3b 85 ac 6b 3d d0 42 8d 3c b5 f1 aa bc
       0.005867624 0.057537574 0.017243773 -0.020867208
000240 1d 6e 93 bc b7 13 38 bd 79 3b d6 3d d1 a4 3d 3d
       -0.017996842 -0.044940677 0.10460562 0.04629976
000250 ac 12 f0 bc 92 27 81 bd 9a 4f be 3d 34 a4 d4 3b
       -0.029305778 -0.063063756 0.092925265 0.006489301
000260 d3 00 83 3c fa d0 08 3d 87 a5 ce 3d f8 3d 8e 3c
       0.015991604 0.03340242 0.100901656 0.017363533
000270 a8 36 4b bd a4 05 61 bd cb 6d 2b bd 82 fa 74 bd
       -0.04961267 -0.05493702 -0.041852754 -0.059809215
000280 99 b9 d6 3d 3c 14 1c bd 62 ca ce 3d 7b b3 a0 3d
       0.10484619 -0.038105235 0.10097195 0.07846733
000290 8a ce 8a bc e6 19 ba bc d1 95 2c bd 06 8f b0 3d
       -0.016944189 -0.022717427 -0.042135064 0.086210296
0002a0 4f 1b b2 bb 9a b0 14 3d fc 3b 20 be a3 a2 5f bd
       -0.0054353843 0.036301233 -0.15647882 -0.05459846
0002b0 ac a0 6d bd b2 a3 20 be 35 10 1d bd aa ff 4b 3c
       -0.058014557 -0.15687445 -0.038345534 0.012451092
0002c0 fb 28 85 3d 46 db 65 3d 11 aa c0 3c 21 ef a7 bb
       0.06501957 0.05611732 0.023518594 -0.005124942
0002d0 84 75 8d bb 56 20 17 bd 75 35 ef 3d b5 ad 06 3e
       -0.0043169875 -0.036896072 0.11680118 0.13152201
0002e0 0b 61 cd 3d da b5 a9 be 5e 45 39 be 0d 68 4b be
       0.10028275 -0.33146554 -0.18092868 -0.19863911
0002f0 0b 03 5f be 36 7a 7c be fa e3 de 3d dd 9d 4c bc
       -0.21778505 -0.24655995 0.10883327 -0.012488809
000300 1a a2 fb 3d a1 00 1e 3c de 6e 9f 3c 9b 58 02 be
       0.12286778 0.009643705 0.019462045 -0.12729113
000310 c3 c7 87 bd d3 c2 9c bd 52 e7 04 be 7a 80 41 3c
       -0.066298984 -0.07654347 -0.12978867 0.011810416
000320 b8 b2 3c 3d 80 c0 ed 3d 83 80 bb 3d 8d 2e 2b bd
       0.046068877 0.11608982 0.09155371 -0.04179244
000330 77 60 54 3c c4 bd 8c 3d 09 1d b9 bc 09 14 97 3d
       0.012962452 0.068721324 -0.022596853 0.07376868
000340 50 be 39 3e 79 02 70 bc 1b 91 e2 3d b9 fe d3 bc
       0.18139005 -0.014649027 0.11062833 -0.025878297
000350 10 2f 5e 3d 1a 69 17 3e 56 ef bd 3d 66 61 1c be
       0.0542441 0.14786187 0.09274165 -0.1527153
000360 61 23 10 be c2 b6 ea bd d5 12 84 bd d2 a5 4e bd
       -0.14075996 -0.114606395 -0.064489044 -0.050451107
000370 5e 0d aa bc a0 b1 7b 3c 2d 98 28 bd ba 92 f5 bc
       -0.020758327 0.015362173 -0.04116075 -0.029977191
000380 b4 b1 ac 3d 03 f9 06 bd 48 4d d5 3d c6 30 a0 3c
       0.08432332 -0.03295232 0.10415131 0.019554507
000390 09 05 b8 3c ec bb 57 3d cf f1 1f bd 04 9b 0c 3e
       0.022463338 0.05266945 -0.039048966 0.13731009
0003a0 5d 57 b1 3d 30 12 d4 3c fa 33 b2 bc 1d 35 b4 bc
       0.08659241 0.025887579 -0.0217533 -0.021997983
0003b0 e0 69 44 bd 92 36 63 bd 24 0b d1 bd fd a1 f9 bd
       -0.047952533 -0.055471964 -0.10207203 -0.121891
0003c0 0a 01 e5 bc 13 b5 94 bd 11 82 7a bd eb fd c6 3a
       -0.027954597 -0.072611 -0.061159197 0.0015181875
0003d0 c8 c8 ef bd 8a 43 34 bd 17 9f 7a bd 60 2a 8d 3c
       -0.11708218 -0.044009723 -0.061186876 0.01723212
0003e0 6c 99 19 3d 33 d3 a0 3b 41 89 22 bd fc 3e 91 3d
       0.03749983 0.0049079894 -0.039681677 0.070920914
0003f0 92 32 af 3a a6 9b 0c bc ca 68 87 bd f5 6e cf bc
       0.0013366512 -0.008582031 -0.06611784 -0.025321463

lstm.weight_hh_l0 f4 [512, 128]
000000 82 37 86 bd 96 60 37 bd 27 56 6a bd a2 be 17 3d
       -0.06553556 -0.044769846 -0.057211068 0.037047036
000010 83 bf 99 bd 74 49 25 bd 51 bb 8c bd 15 a6 0a 3c
       -0.07507231 -0.040353253 -0.06871665 0.008462449
000020 35 9c b4 bd d6 3b 45 3d 2d fe 6f bd 79 ec 92 bc
       -0.088188566 0.048152767 -0.05859201 -0.017935025
000030 30 0a 9a 3d 58 e6 a9 3c 36 ba 5d 3d 59 68 11 3d
       0.07521474 0.02073972 0.054132663 0.035499904
000040 ed 64 9d 3d d3 3b 3f 3d 08 d7 03 3c 6e 78 03 bd
       0.07685266 0.046687912 0.008046873 -0.032097273
000050 2e e7 a1 bd 49 0d cf 3c 94 4c 83 3b ea a3 a3 3d
       -0.07905422 0.02527489 0.0040069316 0.079902485
000060 59 99 4d 3d 59 df 56 bc fe 59 8d 3d 88 d7 14 bd
       0.05019507 -0.013114774 0.0690193 -0.03633836
000070 59 49 4d bd 10 6e 84 bd b3 6c 0b 3e 05 c9 40 bd
       -0.050118778 -0.06466305 0.13615684 -0.047066707
000080 0e 04 f5 3c 06 0b a6 3d 8a a3 95 bd 2b a6 2c bc
       0.02990916 0.08107571 -0.07306583 -0.010537664
000090 30 78 7f bd b2 77 2a bd 8c ae 86 3d f0 c1 4a 3d
       -0.06237048 -0.041618057 0.06576261 0.04950136
0000a0 70 60 6b 3d 1d 64 58 bd e0 bc 53 3d 11 44 b1 bc
       0.057465017 -0.05282985 0.051693797 -0.021638902
0000b0 fd 07 1e bd b8 13 69 bd 58 b6 92 bd 9b 7d 31 bd
       -0.038581837 -0.05690357 -0.071636856 -0.043332677
0000c0 d0 3a 57 bd 84 18 85 bd dd b8 2b bc 85 bc 01 bd
       -0.052546322 -0.064988166 -0.010481087 -0.031673927
0000d0 a9 22 73 bc 93 b0 66 3d 1a ba 18 3d a6 01 8a bd
       -0.014839807 0.056320738 0.037286855 -0.06738596
0000e0 21 28 90 bd 42 14 a2 3d b9 63 35 bd dd bb c1 bc
       -0.07038904 0.0791402 -0.044284556 -0.02364915
0000f0 6b 17 09 3d 64 57 78 3d 18 10 e4 ba 10 95 52 bd
       0.0334696 0.060630217 -0.0017399816 -0.05141169
000100 26 3d 98 bc f1 df e0 3c 53 d8 90 3d 8f 30 6f 3c
       -0.018583845 0.027450534 0.070725106 0.01459898
000110 5f 3c 29 bd 4e 5f 97 3d 06 8b 2e 3d 1a c5 be 3d
       -0.04131734 0.07391225 0.04261305 0.09314938
000120 6e 9b c3 bc 2a ca 9e 3c 4e cb 25 3d 35 b7 58 3c
       -0.023877826 0.019383509 0.04047709 0.013227274
000130 07 02 92 bd 2c a1 74 bd c6 98 af 3d 31 c7 57 bd
       -0.07129293 -0.059724018 0.08574061 -0.052680198
000140 06 42 dd 3c 4e 3c 86 bd 43 ce 37 3d 00 d8 c0 bb
       0.027009021 -0.06554471 0.04487444 -0.005885124
000150 31 0e 6c bc 64 7f c5 3d 75 4d 7d bd aa c3 0b 3d
       -0.01440768 0.096434385 -0.061841447 0.034122147
000160 d3 8c 8c 3d 55 f0 10 3b 24 c1 b4 bd 1d 2b a4 3c
       0.068627976 0.0022115905 -0.08825901 0.02004009
000170 1e cd 46 3c 54 ef 31 bc 3c 69 bc 3d 70 ec 8e 3b
       0.012133865 -0.010860283 0.09199759 0.0043616816
000180 21 fa 16 3e d2 0f af 3d da f1 b4 3d 98 a6 d0 3d
       0.14743854 0.08547939 0.08835192 0.10188025
000190 92 1e e9 bc 0f 45 01 bd 4e ba 13 3e 6f cd 49 bd
       -0.02845696 -0.03156 0.14426538 -0.049268182
0001a0 15 2c 61 3c a2 4d a9 bd e1 75 53 bc 9d 3a 99 bd
       0.01374342 -0.082667604 -0.0129065225 -0.07481883
0001b0 ae bf dd 3c 54 4f 82 3b 91 43 dd bd e2 6e 97 bd
       0.027068939 0.003976742 -0.10803903 -0.07394196
0001c0 82 b0 d9 3c 73 13 7d 3d 37 99 1c 3b 72 7b 28 3c
       0.026573423 0.061786126 0.0023895034 0.010283338
0001d0 3c a1 00 3d 85 59 6e 3d 68 f4 19 bd 2b 22 83 3d
       0.031403765 0.05819084 -0.0375866 0.064030014
0001e0 4e 1c 02 bd b4 ad 24 be af b8 0b bd 1f 7a 88 3d
       -0.031765275 -0.16081887 -0.034111675 0.06663918
0001f0 2d 7f 13 3d 90 0e 2e 3d f7 74 ef ba 1f 1d 9a bd
       0.036009956 0.042494357 -0.0018269111 -0.07525086
000200 6a b9 6e bd 0b 6f 31 3d 2e 08 86 bd 9d 1e 0f 3b
       -0.058282293 0.04331879 -0.06544529 0.0021838315
000210 2c 6e 1a bb 5d df 39 3c 44 88 ba 3c 60 c1 8a bc
       -0.0023564203 0.011344758 0.022770055 -0.016937912
000220 b6 04 58 bc 39 f6 9f bd 1f 4a 94 bd 34 3a 07 3d
       -0.013184717 -0.07810635 -0.072407 0.03301449
000230 7a 63 4c bd 19 cc 50 3d 09 32 85 bd e9 40 43 bd
       -0.049899556 0.050975893 -0.06503684 -0.047669325
000240 6e ac f7 bc 14 88 10 bd 41 23 4d 3c 0b f9 a1 3d
       -0.030233588 -0.035286024 0.012520612 0.07908829
000250 56 ec c9 3c e6 99 95 3d 9b 93 4b bc 69 ef ff bc
       0.024648827 0.073047444 -0.012425329 -0.03124209
000260 eb 6b 6e 3d 3a 09 4b 3d e8 bb 98 3d c8 3d d5 bc
       0.058208387 0.049569346 0.07457715 -0.026030436
000270 a9 8e a3 3d c3 31 15 bd 73 b7 1b bd 62 c6 af 3d
       0.07986195 -0.03642441 -0.038016748 0.085827604
000280 6c 29 8f bd 1d 9e 9d bd 2b 9f 4a bd 9b a8 7c 3c
       -0.069903225 -0.07696173 -0.0494682 0.015421058
000290 49 59 ce 3c 3e b5 03 bc 62 c5 bf bd e2 11 25 3d
       0.025189059 -0.008038817 -0.0936382 0.040300258
0002a0 d6 81 d6 3c 70 a7 ca 3c 39 9c 3c bd cd 44 fa 3b
       0.026184957 0.024738044 -0.046047423 0.007637596
0002b0 3a da 1a 3d 19 eb 0b 3d 6b be a7 bd fd cd 3e 3c
       0.037805773 0.034159753 -0.08190616 0.011645791
0002c0 d8 05 27 bd f2 d0 53 bd 00 16 28 bd 36 94 28 3d
       -0.040777057 -0.051712938 -0.041036606 0.04115697
0002d0 1c 72 95 3d b1 25 1c 3d 94 96 f5 bc 58 a3 4a bd
       0.07297155 0.038121883 -0.029979028 -0.049472183
0002e0 6d 45 bb bc 79 21 9b bb d0 89 1c 3d c9 42 97 3d
       -0.022860253 -0.004734215 0.038217366 0.07385785
0002f0 10 ed c2 3c b3 ea 22 bd b9 7f 7b bc 13 32 17 3d
       0.02379468 -0.039774608 -0.015350276 0.03691299
000300 61 f3 84 3c fa 6b 74 3d 24 78 96 3c 00 6e ae 37
       0.016229333 0.059673287 0.018367834 2.079364e-05
000310 d1 70 e8 bc e4 80 54 bc f4 a0 8a bd 02 38 85 bc
       -0.028374108 -0.012970183 -0.067689806 -0.016262058
000320 ae f9 c8 bc 63 ce 81 3d b3 20 bf bd 2e 30 2d bd
       -0.024533119 0.06338193 -0.09332409 -0.042282276
000330 fc f7 28 3d 3c 41 5f 3d d5 8e 8e bd 3c ee 69 bd
       0.04125212 0.05450557 -0.06960837 -0.057111964
000340 eb b0 d0 3c bd 84 cb bc 3a 34 c5 3b 90 c9 87 bb
       0.025474986 -0.024843568 0.006018189 -0.004143901
000350 3b 03 08 3d 9a b0 25 3c 52 c1 72 3d 31 24 a0 bd
       0.033206206 0.010112906 0.059266396 -0.07819403
000360 db 54 04 bd 20 2e b6 bc 0a 2b 25 bd 5d c3 6b bd
       -0.032307487 -0.022238791 -0.04032425 -0.05755936
000370 c4 27 93 bd 68 fa 8c bc a5 62 79 3d 7c f9 86 3d
       -0.07185319 -0.017209247 0.06088509 0.06590554
000380 70 b7 00 3b fa eb 40 3d 9b bc 0f bd 8d a1 79 bd
       0.0019640587 0.047100045 -0.035091978 -0.060945082
000390 34 6a b2 bd cc 8f 50 bc af a3 05 3d e3 d2 0e bd
       -0.08711663 -0.012729596 0.032626804 -0.034869086
0003a0 4b 13 4e 3b fc b7 9d 3b 9e c0 24 bd 91 0d 9e bd
       0.0031444605 0.0048131924 -0.040222757 -0.07717431
0003b0 33 32 a1 3c f2 00 a5 bc 45 bd 4b 3d 16 65 d1 bc
       0.019677257 -0.020142052 0.04974105 -0.025560897
0003c0 d5 5c 5a 3d ff 4a 88 3d 75 b2 80 3d 96 8e 51 bd
       0.053311188 0.06654929 0.06284038 -0.05116137
0003d0 75 84 4a 3d ea b8 05 bd 56 69 7e 3d 3c f7 9d 3d
       0.049442727 -0.03264705 0.062112175 0.07713172
0003e0 e8 9a a4 3c 7a 68 1a bc b1 ff 93 bd 77 f3 b9 bd
       0.020093396 -0.009424323 -0.07226504 -0.0907964
0003f0 66 fd 89 bd d1 25 3b 3d b7 8b c7 3c ab 7f c1 bc
       -0.06737785 0.04569036 0.024358613 -0.023620447

lstm.bias_ih_l0 f4 [512]
000000 14 f7 79 3d d8 e9 b7 3d af be 49 3d 70 ab bf bb
       0.061026648 0.08980149 0.049254116 -0.0058492944
000010 b5 00 a8 3d d5 a6 14 3e c3 68 b4 bc a2 8b 00 3e
       0.0820326 0.14516766 -0.02202261 0.12553266
000020 b2 cb 0c bd 2b 9c cb 3d 48 73 c5 3e 25 9a 49 3d
       -0.034373946 0.09941896 0.38564515 0.04921927
000030 71 39 90 bc 1b 4c a0 3d bd c1 44 3d 14 d1 34 3d
       -0.017605515 0.07827016 0.048036326 0.044144705
000040 7f c5 8c 3c 39 b5 9e 3d e3 b0 2a 3d 1f df 2f 3d
       0.017184017 0.07749409 0.0416726 0.042937394
000050 c3 a7 6c bd 6f c1 7c bd bf b1 0b bd 8a 11 17 3e
       -0.057777178 -0.06170791 -0.03410506 0.14752784
000060 48 9c 6e 3b d9 65 a6 3c 04 7f 75 3d 09 99 66 bd
       0.003640907 0.020312237 0.059935585 -0.05629829
000070 43 c4 94 bc c5 da b3 3c 53 5b b1 bc b6 c6 9b 3d
       -0.018159991 0.021954903 -0.021649992 0.076062605
000080 b8 9d ad 3b a4 2d 22 3e 7e be 45 bd 29 fe c9 3d
       0.0052983426 0.15837723 -0.04827737 0.0986293
000090 8a 09 11 bd df 1e b6 3d 61 5a 0e 3e 09 60 70 bd
       -0.035409488 0.08892607 0.13901664 -0.058685336
0000a0 fd 9d a9 3d e7 55 16 3e 75 db 0b 3e 06 d9 a6 3d
       0.08282087 0.14681207 0.13657935 0.08146863
0000b0 f8 f0 3b bd d4 a7 bc 3d d1 3c 1d bd 0e 3d 09 bd
       -0.045884103 0.09211698 -0.038388077 -0.033505492
0000c0 4f a7 73 bd 51 b7 1d bd 50 f0 14 3e 8a 8d 83 3b
       -0.05948573 -0.038504902 0.14544797 0.0040146755
0000d0 dc 74 18 3d 5e aa d1 3d 60 97 c2 3d 97 c8 96 bc
       0.03722082 0.10237573 0.09501529 -0.018406196
0000e0 ce de 99 bd 52 21 97 3d 96 64 a6 3d 36 f6 ca 3d
       -0.075132 0.07379402 0.08124654 0.09910242
0000f0 59 04 53 3c 13 76 61 3d a4 6e a7 3c 92 cb 93 3c
       0.0128794545 0.055044245 0.0204385 0.018041406
000100 c5 aa df 3d f1 a3 b5 3d f7 cf 91 3d 7d 6f cc 3d
       0.109212436 0.0886916 0.07119744 0.09982202
000110 28 8e 90 bd 09 8a 85 3d 95 d7 c1 3d 59 47 0e 3d
       -0.07058364 0.06520469 0.09464947 0.03473601
000120 d3 66 14 3d 8e 9e 6b 3c 07 d6 a7 3d 8e 13 8b 3c
       0.036230873 0.014381064 0.08195119 0.016977098
000130 de 2c 21 3e 7f 9a 84 3d bb 49 be 3c d2 b4 74 3d
       0.15739772 0.0647478 0.023228517 0.059742756
000140 4f 3f ca 3d 13 72 0a 3b ad d1 a1 3d 40 b3 58 bd
       0.098753564 0.0021125122 0.079013206 -0.05290532
000150 cb 6e bf 3d bc 8b cf 3d a7 e5 fa 3d a0 d9 13 bd
       0.09347304 0.10134074 0.12250834 -0.036096215
000160 16 98 1b bb e9 e4 5d bd ad 4b b7 3d b9 99 d6 3d
       -0.0023741773 -0.054173384 0.08949981 0.10478539
000170 85 ec dd bb ca 6b 66 bd b9 d6 58 bd 5a 71 eb 3c
       -0.00677258 -0.05625514 -0.05293915 0.028740574
000180 a9 a8 92 3e d4 65 41 bd 66 41 bb 3d 80 99 72 3d
       0.28644302 -0.04721625 0.09143333 0.05922842
000190 b5 08 07 3d b0 6c 87 bb de e6 62 3e 6f ed 28 3d
       0.032967288 -0.0041328296 0.22158381 0.04124206
0001a0 5e ca 7a 3d 90 4a ca bc 16 02 dd bc cd 6b fe ba
       0.06122815 -0.024693757 -0.026978534 -0.0019410789
0001b0 cc fc e9 3c da 00 81 3c ed a9 5c bd 0f a7 68 3d
       0.028562926 0.015747476 -0.05387299 0.056799944
0001c0 cd a0 f0 3d 54 7a 0e 3e 68 20 bf bb 18 c0 ce 3c
       0.1174942 0.13913852 -0.0058327205 0.025238082
0001d0 ab 2d 1b bd 3a fe 5b 3c 3d bc d2 3d 9b af 9c 3d
       -0.03788535 0.013427312 0.1028981 0.076506816
0001e0 be 2f 9e 3e 9c 53 31 3e c1 ce d9 bc 2b d1 0b 3e
       0.308958 0.1731705 -0.026587846 0.1365401
0001f0 0b b8 0c bd cc 7e 04 3e 43 22 fe bc ff cf 8b bd
       -0.034355205 0.12938994 -0.031022197 -0.068267815
000200 31 1e 8e 3d 1a 10 8f 3d 48 a5 be bd 30 89 51 3c
       0.06939352 0.06985493 -0.09308869 0.012789056
000210 4d 64 b7 bd 6d ae c4 bd a0 d7 8b 3c 3c be 8f bd
       -0.08954678 -0.096035816 0.017070591 -0.07018706
000220 ed 6a fb bd 4b ef 56 bc ce e0 35 be 6b 9e 95 3d
       -0.12276254 -0.013118575 -0.17761537 0.073056065
000230 f7 d1 d1 bd 83 9a 6a bd fa 7a 7a bd e8 08 20 3d
       -0.10245126 -0.05727626 -0.061152436 0.039070994
000240 46 03 b7 bb 47 c9 25 bb dd 24 8d bd 30 09 46 bd
       -0.005585107 -0.0025296973 -0.06891797 -0.048348606
000250 c3 08 dd 3c 43 75 21 3d 55 31 12 3b 49 6c 17 3d
       0.026981717 0.03941847 0.0022307236 0.036968503
000260 56 13 13 3c b5 7a d6 3c 6f 42 36 bd cf 22 a2 3c
       0.008976778 0.026181558 -0.04449695 0.019791989
000270 4a 64 cf b8 41 29 0e 3d b4 3f 21 3d 3e d4 41 bd
       -9.8892095e-05 0.03470731 0.039367393 -0.04732155
000280 fd 70 af bd a2 63 7d 3c 72 73 5d 3d e4 e4 88 bd
       -0.08566473 0.015465649 0.054065175 -0.066842824
000290 af 15 c2 bd 04 df 6a bc 91 62 48 bc 04 fa 23 bb
       -0.09476792 -0.014335398 -0.012230531 -0.0025020847
0002a0 e8 e1 80 bd fc 8e 14 be 7d 35 b6 3b 56 99 d7 ba
       -0.06293088 -0.14507669 0.0055605755 -0.0016448896
0002b0 5a 93 37 3d 9b cc b6 bd de 89 ac bd 9b b4 7b 3d
       0.04481826 -0.08925744 -0.084247336 0.061451536
0002c0 7e cf 39 bd 10 ea 58 3c d0 09 3c 3c 35 b9 b0 bd
       -0.045363896 0.013239399 0.011476949 -0.086290754
0002d0 83 9b 15 3d 41 11 25 bd 9f cf 81 bd c3 fe 41 bd
       0.03652526 -0.040299658 -0.06338429 -0.0473621
0002e0 05 d1 a5 bd 1c 96 78 3c cf 8a 04 3d 49 ea 73 bb
       -0.08096508 0.015172508 0.03235894 -0.0037218502
0002f0 b3 1c d5 bd 2f ed a7 bc 14 ff 6a 3d a2 39 51 bd
       -0.104058646 -0.02049884 0.057372168 -0.051080354
000300 76 cf 69 bb 47 d6 66 bd e0 15 9d bd 0a 44 0e bc
       -0.0035676635 -0.056356695 -0.07670188 -0.008683214
000310 7d 4a 24 3d 3b 01 64 3d 0f b8 99 bd c6 22 cd 3c
       0.0401101 0.055665236 -0.075058095 0.025040995
000320 d9 67 96 bb 96 13 aa ba da af 80 bd df cf 99 bd
       -0.0045900163 -0.0012975808 -0.06283541 -0.075103514
000330 96 a5 b1 bd e6 67 58 bc fb ff 13 bd 5e f2 4c 3d
       -0.08674161 -0.013208365 -0.036132794 0.050035827
000340 97 7e 5a 3c 3f 5a 8b bd fe 5d 31 3d c5 71 0f bd
       0.013335845 -0.068043225 0.04330253 -0.03502061
000350 c7 2a 15 bd be 63 19 3d a7 88 34 3d 29 58 4a bd
       -0.03641775 0.037448637 0.044075634 -0.049400482
000360 43 96 65 3d 37 64 ad 3b 5e 1e 9e bd 91 c9 92 3d
       0.056051504 0.0052914876 -0.07720636 0.07167352
000370 7d 7f 96 bd a4 c6 ad bd ec af 83 3d 56 4e 4f bd
       -0.07348535 -0.08485153 0.06430039 -0.050611816
000380 65 24 07 be 16 a2 8b 3d fe 6a 36 3d 76 2c 75 3d
       -0.13197477 0.06818025 0.04453563 0.059856854
000390 ce 19 0d bd 78 ac b6 bd 27 84 5e 3b d6 be c4 3b
       -0.034448437 -0.089196146 0.003395328 0.0060041947
0003a0 d2 4d 82 3d 56 f7 3e bc 47 d6 88 3c 39 64 85 3d
       0.06362499 -0.011655649 0.016703738 0.065132566
0003b0 36 ec 53 3d 5f 42 11 bd 80 24 87 bd 92 e0 7b 3b
       0.05173894 -0.035463687 -0.06598759 0.0038433415
0003c0 b3 e9 78 bd 73 04 3b bd 6e 8e d0 ba c2 bd b5 bd
       -0.060769748 -0.04565854 -0.0015911588 -0.08874084
0003d0 20 1f df bc aa 39 c0 bc 52 db 0b 3c fe eb 3b 3d
       -0.027236521 -0.023464996 0.008536177 0.045879357
0003e0 b7 1e 50 be 30 48 d0 3c eb 0d 24 bd ec 70 ca 3c
       -0.20324217 0.025425047 -0.040052336 0.024712048
0003f0 44 44 dc 3c c6 ff 3d bd b0 a4 47 bd ce cb 2e 3d
       0.02688802 -0.046386503 -0.048741043 0.042674832

lstm.bias_hh_l0 f4 [512]
000000 da 14 00 3e a3 a0 09 bd 03 b5 ab 3d de 6a 54 3b
       0.12507954 -0.03360046 0.083841346 0.003241233
000010 5a 95 5d bd 74 c4 84 3e be 21 68 3d f1 d9 da 3d
       -0.05409751 0.25931132 0.056672804 0.106861
000020 00 72 06 3c 57 93 9c 3d e8 ed 83 3e 6a be cb 3d
       0.008205891 0.0764529 0.25767446 0.09948428
000030 ca f1 15 3e 8d 95 a2 bd 60 ba 0d 3e 5d 21 76 bb
       0.14643016 -0.07938681 0.13840628 -0.0037556507
000040 98 ee 47 bd e6 b4 36 3d a0 a8 96 3d e7 06 42 bd
       -0.048811525 0.044606112 0.073563814 -0.047369864
000050 13 71 f7 bc 29 37 21 bd fd fd 09 3d c4 ff ac 3d
       -0.030205285 -0.039359245 0.033689488 0.08447221
000060 53 d3 ff 3d d7 c9 b2 3b e0 80 be bc 87 82 e7 bc
       0.12491479 0.00545619 -0.023254812 -0.028260482
000070 33 1e ee bc 8a 81 28 3d 8b 05 6e bc c9 26 8b bd
       -0.029067134 0.041139163 -0.014527689 -0.06794507
000080 69 85 9c bd 4c 4a 26 3e 64 e8 d3 bb 76 86 8e 3c
       -0.076426335 0.1623928 -0.006466912 0.0173981
000090 dd 6e 34 bc d3 2e 53 3e 10 0a 80 3e 81 f8 33 3d
       -0.01101276 0.20623331 0.25007677 0.043938164
0000a0 a8 30 6e bd 26 0b 6a 3e 8a 9b 84 3d d0 21 2b 3c
       -0.05815187 0.22855815 0.06474979 0.010445073
0000b0 3a c4 02 3d 95 40 1e 3d 4d a2 1c bd cf cd bc 3d
       0.031925417 0.03863581 -0.03824072 0.092189424
0000c0 1d 83 0d bc 13 5f bc 3c 45 48 67 3d 00 25 48 bd
       -0.008637217 0.022994554 0.056465406 -0.04886341
0000d0 49 55 c1 bc ae 4f 89 3d 5f 3c c5 3c 96 29 e7 3d
       -0.023600237 0.06704651 0.024076639 0.11287229
0000e0 17 33 ed 3b 84 44 01 bd c6 17 12 3d 9d a0 42 bc
       0.0072387564 -0.031559482 0.035667203 -0.0118791135
0000f0 eb ce cf 3b 86 b8 bc bc e4 60 ad 3c f5 03 da bb
       0.006341805 -0.023037206 0.021164365 -0.0066533037
000100 14 11 c0 3d f7 5a d6 3d 37 82 b8 3d 79 2f 38 3d
       0.093782574 0.10466569 0.090092115 0.04496715
000110 51 d5 5f bd b7 7a 61 3d 68 b1 0b 3d 5f 89 9d 3d
       -0.054646794 0.05504867 0.034104735 0.07692217
000120 30 80 b7 3d 72 4e 79 3d 5b 07 47 3d cf 73 72 3d
       0.08959997 0.060865827 0.048591 0.059192475
000130 cf 3c 16 3e 37 8a ad 3d 23 e7 5d 3d 9e 52 5a bd
       0.14671634 0.08473628 0.054175507 -0.053301446
000140 79 4c 08 bd c1 df 33 3b 6a 0f 7a 3d b7 d0 d9 3d
       -0.033276055 0.00274466 0.061049856 0.10635512
000150 12 88 56 bc b0 e3 b1 3d a7 be c8 3c 43 fc 03 bd
       -0.013093965 0.08686006 0.024504973 -0.032222997
000160 90 58 ed 3d 23 0e d9 3d ac 46 04 3e 83 3d 88 3d
       0.115891576 0.105983995 0.12917584 0.066523574
000170 4c 2d c3 3d 52 39 8a bd a8 8a 6f b9 63 61 6d 3d
       0.09530124 -0.06749214 -0.0002284447 0.057954203
000180 4d 00 9a 3e 3e 38 ce 3d 7e a7 91 3d 94 47 04 3d
       0.30078354 0.10069321 0.07112025 0.032294825
000190 08 39 53 bc 10 71 87 3c 38 76 63 3e 40 90 c3 3d
       -0.012892015 0.016533405 0.22213066 0.09548998
0001a0 7c 27 5e 3d fa 18 96 3c a6 ac 9b bc d1 cc fc bc
       0.054236874 0.018322457 -0.019003224 -0.030859383
0001b0 ed c5 8d 3d 78 2b 4f bd 99 04 8e 3d d3 ad 15 3d
       0.06922517 -0.050578564 0.06934471 0.036542725
0001c0 bb 9b 08 bd 26 1f a8 3d 8a 15 4b bd 78 be 86 bc
       -0.03335164 0.08209066 -0.049581088 -0.016448244
0001d0 ec ec 07 3d e6 b0 01 bc 9d 92 84 3c 2b e0 bc 3c
       0.03318493 -0.007915711 0.016183192 0.02305611
0001e0 79 85 a8 3e d7 5d 20 3e ce a4 1f bd a5 10 b2 3d
       0.32914332 0.15660797 -0.03897553 0.08694581
0001f0 65 e4 5f bd a2 be f7 3c b3 f3 e1 3d df 37 d8 3c
       -0.054661173 0.030242268 0.1103281 0.026393829
000200 04 a5 1a 3d 67 ce a1 bd 81 55 38 bd 20 7b 46 3d
       0.037755027 -0.07900696 -0.045003418 0.048457265
000210 ad 44 ca bc 4c 1b 14 be b5 3e 8d bd 9e 86 e3 bd
       -0.02469095 -0.14463538 -0.06896726 -0.111096606
000220 e6 54 30 3d eb 29 a8 bd 81 a6 01 be 6f 1d f2 3c
       0.043049715 -0.0821112 -0.12661172 0.02955505
000230 dc 4f 84 bc 30 b4 73 3d d9 1d 91 bd 41 a5 9a bd
       -0.016151361 0.059498012 -0.07085771 -0.07551051
000240 71 10 bd bd ff 14 a8 bd fc 1e 79 bd c4 b2 80 3d
       -0.092316516 -0.0820713 -0.060820565 0.06284097
000250 5f 99 81 3b 61 bf 61 bd 47 4c 16 bd c0 ca 68 3d
       0.003955051 -0.055114154 -0.036693837 0.056833982
000260 05 3c 57 bd 71 52 9b bd db f7 ed 3c fc 90 b2 bd
       -0.052547473 -0.07584084 0.02904885 -0.0871906
000270 8d f7 93 3c 4a 49 c6 bd 65 6a 58 bd 35 db bd bd
       0.018062377 -0.096819475 -0.05283584 -0.09270326
000280 85 ec eb 3b c3 b2 d6 bc 05 53 93 bd ae 09 97 bd
       0.007199826 -0.026208287 -0.07193569 -0.07374893
000290 12 51 c7 3c 0c 38 45 bd 33 38 75 bd d6 4b 87 bd
       0.02433065 -0.048149154 -0.05986805 -0.066062614
0002a0 9b 5b 69 bc 93 4a a3 bd fd 32 96 bc 48 3c db bd
       -0.014243032 -0.07973208 -0.01833486 -0.10704857
0002b0 6a 26 92 b9 ca 31 07 3d e1 e5 89 3d ae 3a bb bd
       -0.0002787591 0.033006467 0.06733299 -0.09142052
0002c0 c6 5a 46 bd 23 cb a7 3d 1b 25 4c bd a5 06 96 3d
       -0.048426412 0.08193042 -0.049840074 0.07325486
0002d0 63 3f 22 3d 8d 6f 1d 3d 9f a8 37 3d 5d fd 9a 3c
       0.03961123 0.03843646 0.044838544 0.018919641
0002e0 1a d0 02 3d 32 39 57 3d eb 6c 9b bc 9d d3 ad bd
       0.031936742 0.05254478 -0.018972835 -0.08487628
0002f0 5a 08 1b bd bf f9 94 bd 7f 41 48 3d 48 93 6d 3d
       -0.03784976 -0.07274198 0.048890587 0.058001786
000300 98 c6 a3 bd a8 bd 6e 3d a9 ad 1f bd d3 19 d5 bc
       -0.07996863 0.05828634 -0.038983975 -0.02601329
000310 36 94 88 bd 49 67 8f bd 9f a4 ab bc 78 3e 63 bd
       -0.06668894 -0.07002122 -0.02095252 -0.055479497
000320 43 f8 4d 3d 97 e0 98 bd 55 c6 a8 3c 4c 47 87 bd
       0.05028559 -0.07464712 0.020602385 -0.06605396
000330 63 88 e7 3c 02 2c 78 3d 43 04 9e bd 9b 91 29 bd
       0.028263276 0.060588844 -0.077156566 -0.041398626
000340 28 52 53 bd 10 56 45 3d 67 12 a8 bd fd 0d b4 3b
       -0.051592022 0.04817778 -0.08206635 0.0054948316
000350 20 16 35 3c cc 77 d3 bd 6d d7 d8 3c 69 61 e0 bc
       0.011052638 -0.10325584 0.02646991 -0.027390199
000360 8a 32 8e 3c d3 ef 44 3d 20 92 84 3d af 1f 8e 3d
       0.017358083 0.048080277 0.06473184 0.06939637
000370 47 de fd 3c 2f 4b 74 3d 5a 07 39 bd 20 9b 46 ba
       0.03098978 0.059642013 -0.045173027 -0.0007576216
000380 e8 97 7c be 7f 14 08 bd 1a fb 2a 3d 66 5f ab bd
       -0.24667323 -0.03322267 0.041743375 -0.08367805
000390 e4 db 1b bd 24 d3 a4 bd 15 1e b7 bd a2 51 3a 3d
       -0.0380515 -0.080480844 -0.089412846 0.045488007
0003a0 f8 93 33 3d 00 90 01 3d b3 58 7a bd 7a ea bd bd
       0.043842286 0.03163147 -0.061119746 -0.092732385
0003b0 3c 90 28 bd 2b a9 83 3c 12 4d a4 bb e7 8a b7 bd
       -0.041153178 0.016071877 -0.0050140703 -0.089620404
0003c0 b6 d9 8b bc cc d3 73 3d 04 7a a7 bd d3 2e 60 3d
       -0.017071586 0.059528157 -0.081775695 0.054732155
0003d0 ea 8c 54 3d d3 21 cd 3b 5d 6e 8d 3d a2 35 a6 bd
       0.0518922 0.0062601357 0.06905816 -0.081156984
0003e0 28 d1 a3 bd 8d bc f8 3d 86 82 a1 3c a2 39 9f bd
       -0.07998878 0.12145338 0.019715559 -0.077746645
0003f0 f0 52 14 bd 46 26 9a 3d a5 01 e7 bc 83 24 a5 bd
       -0.036211908 0.07526831 -0.028199026 -0.08063605

lstm.weight_ih_l1 f4 [512, 128]
000000 67 6c b7 bc c2 5e 96 3c 38 84 ae bd 16 dc c0 3c
       -0.022390557 0.01835573 -0.085213125 0.023542445
000010 ae e0 2c bd 9b 01 af 3d 34 c5 06 3d ec 85 f2 3d
       -0.04220646 0.08545228 0.03290291 0.1184195
000020 a8 29 0c be ae 0f c2 3c 48 d7 10 3e 6f e8 47 3c
       -0.13687766 0.023689117 0.14144623 0.012201413
000030 eb ee 97 bd dd 2e 68 3d ad d4 b3 3c 85 1b ec bd
       -0.07418617 0.056685317 0.021951998 -0.115286864
000040 fd 55 eb 3d 4a 3c 27 3c 8c 8a f4 3c 6d 96 e2 bd
       0.1149101 0.010207245 0.02985122 -0.11063848
000050 67 ab aa bd b2 87 d0 ba 95 41 0d be cf 8b a6 bd
       -0.08333474 -0.0015909581 -0.13794549 -0.08132135
000060 26 10 80 bc 40 8f e5 3d 25 7a 17 bd f9 0c 78 bd
       -0.0156327 0.112089634 -0.03698172 -0.060559247
000070 4d 51 99 bd e6 33 65 bd f1 0e 49 bd 3c 0c 26 3d
       -0.0748621 -0.055957697 -0.049086515 0.04053901
000080 4e c6 ac 3d cd 90 4e 3d 95 26 ee 3d 41 26 dc 3d
       0.08436261 0.05043106 0.11628453 0.10749484
000090 89 be 18 3d a3 b8 9b 3d 04 8b bb 3d c2 8a 89 bc
       0.037291083 0.07603576 0.091573745 -0.016789798
0000a0 c9 e3 ba 3c d9 79 52 3c 34 62 1f be 0a ba b6 3c
       0.022813695 0.012846434 -0.15564805 0.022305507
0000b0 35 ae 9e bc 22 de 38 bd 76 25 b3 bb a9 a0 74 bd
       -0.019370178 -0.045133717 -0.005467112 -0.05972353
0000c0 a2 62 36 bd c3 eb a5 3b de a8 b8 3d 91 82 ca bd
       -0.044527657 0.0050635054 0.09016584 -0.09888185
0000d0 76 41 0b bd b6 2c 4e 3c 7a 3d 72 bc bb c3 6a bc
       -0.033997975 0.012583902 -0.014785165 -0.014328892
0000e0 ce d4 2b bc 12 1a 27 3c e3 e8 a2 bc 21 ea 32 3d
       -0.010487748 0.010199087 -0.01988644 0.043680314
0000f0 14 53 05 3c 04 4b e1 3c 52 47 cc 3d 93 8e 89 3d
       0.008137483 0.02750159 0.09974541 0.06716647
000100 2e 74 d2 bd 4e 1b 61 bd b7 05 97 bc a0 e6 54 bd
       -0.10276066 -0.05495768 -0.018435342 -0.051977754
000110 cc a7 3c bd ba 06 5d 3d 45 7e 62 3d 0b 2c cc bd
       -0.04605846 0.053961493 0.0552962 -0.09969338
000120 75 a9 36 bd 86 34 e2 bc eb a7 82 3c 9d 12 77 bc
       -0.0445952 -0.027612936 0.01594921 -0.015080121
000130 d2 3d bf ba 8f b9 8d bc dd 88 ad 3c 24 07 50 bc
       -0.0014590567 -0.017300395 0.021183426 -0.012697015
000140 ba d9 d2 3d ca df d6 bc 41 79 b3 bc db c8 ce 3d
       0.10295434 -0.026229758 -0.021908404 0.10096904
000150 a8 97 9a bb 7c 22 c7 3d 47 dd 02 3d d2 71 26 3d
       -0.004717786 0.09723374 0.031949308 0.04063589
000160 39 da f8 bc 55 3f 12 bc c3 93 82 3c e0 91 08 3d
       -0.030377494 -0.008926232 0.015939599 0.033342242
000170 45 56 64 bd 10 95 9d 3d 08 b2 d2 3d 03 45 93 3d
       -0.055746336 0.07694447 0.10287863 0.07190897
000180 ff 7c c1 bd 8e 06 a5 bd 41 3a 65 3d 9b b4 a4 3c
       -0.09447669 -0.08057891 0.05596376 0.02010565
000190 37 74 f4 3c da 56 2f bd 0a 11 12 be 30 bd 87 bb
       0.029840572 -0.042807437 -0.14264312 -0.004142426
0001a0 24 11 77 3d 57 07 36 bd 83 ac 07 3d fd 2e d1 bc
       0.06031908 -0.044440594 0.033123504 -0.025535101
0001b0 1b a8 a5 3b 72 bf fc bc 57 e2 aa bb cd 48 96 3d
       0.00505544 -0.030853007 -0.00521497 0.073381044
0001c0 be cb e7 3d ea 63 98 bd 91 1d b6 bd d9 07 80 3d
       0.113181576 -0.07440932 -0.08892358 0.06251497
0001d0 1f 06 74 bd 1f 92 59 bd 0d 1e 9b 3d 91 8f af 3c
       -0.05957615 -0.053117868 0.07574091 0.021430762
0001e0 44 2b 39 bd 23 15 72 bd e5 b6 f1 bb 4e 43 f6 3a
       -0.045207277 -0.05910219 -0.007376539 0.0018788369
0001f0 9d 6b 27 3d 12 32 04 bd 8b b0 7b 3d 34 7d 44 bc
       0.040874112 -0.032274313 0.06144766 -0.011992741
000200 02 53 ab 3d a6 65 2d 3d 89 04 9c bd 1a 55 a1 bd
       0.08365442 0.042333268 -0.076180525 -0.0787756
000210 c9 35 0a bc 52 95 7d 3c e6 b0 55 3d d3 02 0f 3d
       -0.008435675 0.015477495 0.052170657 0.034914803
000220 2d 32 ed bd 6d 38 09 bd 0e 60 a6 3d 96 93 b8 bd
       -0.11581836 -0.033501077 0.0812379 -0.09012525
000230 77 e6 26 bd d6 52 2b 3d 29 f6 79 3d 14 bc b1 bd
       -0.040747132 0.041827045 0.061025772 -0.08678451
000240 c9 b9 89 bc 23 07 a3 bc 4e 22 18 be 3d db a8 bd
       -0.016812222 -0.019900864 -0.14856836 -0.082449414
000250 a7 ec bb 3c cc 90 c9 3c 7d 35 b6 bd b1 fb d7 bd
       0.022939993 0.024605177 -0.08896921 -0.10546053
000260 7f 4e 97 bd bd 13 88 3c fa 3d 7f bd 8f f7 10 3d
       -0.07388019 0.016610974 -0.062314965 0.03539234
000270 40 2f f7 bc 12 47 90 bc 8f be 8a 3d 64 2f 90 bd
       -0.030173898 -0.017612014 0.067746274 -0.07040289
000280 63 96 49 bc 1f 10 e0 3c dc e1 b7 3d 08 5b 3a 3b
       -0.012303921 0.027351437 0.08978626 0.0028435607
000290 66 b2 de bd 5e 8b 40 3e de 34 ce 3d 3e 5d 0a bc
       -0.108738706 0.18803164 0.10068677 -0.008445082
0002a0 7c 1c af 3d ad 4d 5a bc 25 7b f1 bd 1c fc 29 3c
       0.08550355 -0.013324183 -0.11791066 0.010375049
0002b0 dc 6a b2 bd be 85 4d 3d 3c 24 08 be 32 47 e0 3c
       -0.08711788 0.050176375 -0.13295072 0.027377699
0002c0 cb 80 f5 bc e5 12 11 bd 6d cc 14 3d b6 db c2 3b
       -0.02996864 -0.03541841 0.036327768 0.0059466017
0002d0 ab c7 ab 3d 1b 83 d0 bc 74 a9 73 3d 77 a4 46 bd
       0.08387693 -0.025453141 0.059487775 -0.04849669
0002e0 f6 e8 9d bc 5c 69 cf 3c 5c 0a f2 bd ed 73 2a bd
       -0.019276123 0.025318794 -0.11818382 -0.04161446
0002f0 19 27 ee bc 64 ad d6 bd 66 42 8e 3d 57 be 21 3d
       -0.029071378 -0.104822904 0.06946258 0.039488163
000300 cb 41 05 bc e9 8c 19 3d a3 b0 dc 3c 79 3b 43 bc
       -0.008133362 0.037487898 0.026939696 -0.011916035
000310 1d 01 8b 3b d1 66 cd bc 09 b6 1e 3c b1 b0 8f bd
       0.004242076 -0.02507344 0.009686955 -0.07016123
000320 e5 dd 01 3e fd b2 50 3d 79 df 51 3d 6b 3c e4 3d
       0.12682302 0.050951947 0.05123851 0.11144336
000330 e0 6d e5 bd 61 10 b1 bd bb 95 88 bb 4e eb 97 bd
       -0.112025976 -0.08645702 -0.00416824 -0.07417928
000340 25 5e 58 bd c9 78 8f 3d 47 b6 73 3c 59 55 86 bc
       -0.05282416 0.0700546 0.014875001 -0.016398119
000350 4b 8d 40 3d 06 1f bf bc 2b d5 6f 3c d5 ce b6 3d
       0.047009747 -0.023330223 0.014638226 0.08926169
000360 c5 cd e8 bc 28 ea 3c 3d 07 36 e2 3c c6 c6 0a 3d
       -0.028418431 0.046121746 0.027613653 0.03388097
000370 31 ea 7a 3d 98 98 7b bd 29 a3 49 3d 6f d4 19 bd
       0.0612585 -0.06142482 0.049227867 -0.037556108
000380 4b 42 e4 bd 4d e1 83 bc 8a 0d b4 3c cf 8f ee 3c
       -0.11145457 -0.016098643 0.021979112 0.029121308
000390 5f 3d 59 3d 4a 34 f1 3d 69 b5 97 bd bb e1 4c 3d
       0.053037044 0.117775515 -0.07407648 0.05001996
0003a0 14 79 5e bd f9 d8 7d bd 0e 05 4f bd fa d7 a3 3c
       -0.054314688 -0.0619745 -0.05054193 0.020000447
0003b0 af 55 e0 bc e8 31 e4 bd 43 6a 24 bd 78 df 28 bd
       -0.027384607 -0.11142331 -0.0401404 -0.04122874
0003c0 60 a2 42 bb b6 69 da 3c 68 55 5a bd a6 00 3c 3c
       -0.0029698834 0.026661735 -0.053304106 0.011474764
0003d0 73 c6 85 3d 66 8c b7 3b 3b e9 9e 3c 6e f2 e6 3d
       0.06531992 0.0056014536 0.019398322 0.112767085
0003e0 5a 48 fc bd 71 de dd 3a 27 59 3d 3d 82 95 c0 bb
       -0.123184875 0.0016927255 0.0462276 -0.0058771977
0003f0 15 5b f7 bc 84 b3 a0 3c 90 9c 5b bd 9c 11 b2 bd
       -0.030194798 0.01961685 -0.053616107 -0.08694765

lstm.weight_hh_l1 f4 [512, 128]
000000 21 a1 12 3d 64 3f 70 3d 3c 59 7f 3d f0 f2 fe 3c
       0.035798196 0.058654204 0.06234096 0.031121701
000010 ba 2a 4f bd ca e1 da 3b c2 d7 7a bd 02 7f 37 3d
       -0.050577857 0.006679748 -0.06124092 0.04479886
000020 28 10 59 bd 72 28 9a bd 70 bf 69 3c 37 96 bf 3c
       -0.052993923 -0.075272456 0.014266834 0.023387058
000030 30 a8 9b 3d 5d 71 c0 bc 14 d5 61 3d 86 14 60 bd
       0.076004386 -0.023491556 0.055134848 -0.054707073
000040 47 f4 f2 3c 06 ab e2 bc fd 97 28 bc 4b 37 9f bd
       0.029657496 -0.027669441 -0.010290143 -0.07774218
000050 3b a0 79 bc ae fd b3 3c 69 a3 95 3c a4 5e 89 bd
       -0.015235956 0.02197155 0.018266397 -0.067075044
000060 90 4d 8f 3b 46 f1 77 bd 68 95 83 bd 57 68 a8 bd
       0.00437326 -0.06053283 -0.06424981 -0.08223026
000070 f4 f2 f2 3c ec d8 56 bd 6d f3 80 3d 00 29 0f 3a
       0.029656865 -0.052452967 0.0629643 0.00054611266
000080 f3 96 f5 3c f4 74 24 bc d5 b9 59 bd 44 ec 06 3e
       0.029979205 -0.010037649 -0.05315574 0.13176066
000090 12 01 c7 ba 1d 99 d9 bc 24 1d a2 3c bb 53 55 bc
       -0.0015182814 -0.026562268 0.019789286 -0.013020451
0000a0 3b 65 3a bd 71 75 85 3d 82 04 90 3d 0c db 04 3c
       -0.045506697 0.06516541 0.0703211 0.0081088655
0000b0 4b f3 9b bd b8 5d 79 bd 6a 86 d3 bb 5a 16 d8 3d
       -0.07614764 -0.060880393 -0.0064552324 0.10551138
0000c0 8a 26 5a 3c 51 d1 91 3d 5d 13 1f bd f6 d6 40 3d
       0.0133148525 0.07120002 -0.038836826 0.047080003
0000d0 48 bb 09 3c 93 46 15 bc cf 7e 7a bc b4 ef cb ba
       0.008406468 -0.0091110645 -0.015289023 -0.0015559108
0000e0 cb 80 b4 3d 8d da 1c 3d 6a d8 81 bc 78 ff f0 bc
       0.08813628 0.038294364 -0.015850265 -0.029418692
0000f0 07 c5 bc 3d c8 65 7d 3d d6 ec 9c bc 72 84 b7 3c
       0.092172675 0.061864644 -0.0191559 0.022402022
000100 d7 8a e6 3d 5f 80 c4 bd ea c1 a3 3d 0a 43 0e bd
       0.1125695 -0.09594797 0.079959705 -0.034731902
000110 2b 89 0b bd 29 a9 96 bc 07 a4 a7 3d 9a 45 90 3d
       -0.03406636 -0.018391209 0.081855826 0.070445254
000120 97 b5 63 bd 49 6e 6a bd 51 2b 8c 3c 3c 4c ab 3d
       -0.0555931 -0.057234082 0.017110499 0.0836415
000130 18 b8 4d bd d7 c3 4d 3d c4 f1 ea 3c f3 7c 67 3c
       -0.050224394 0.050235596 0.028679736 0.014128911
000140 23 b2 32 bd 52 1d 6a bc f4 96 8b 3b 15 ec 94 bd
       -0.043626916 -0.014289217 0.0042599384 -0.072715916
000150 c8 5b 5a 3d 8e 98 4b bd e6 21 a8 bc c1 af b4 bc
       0.053310186 -0.049706034 -0.020523977 -0.022056462
000160 5f 6c 21 bd b7 f7 05 bb 88 a2 02 3d 92 16 68 bd
       -0.03940999 -0.002044184 0.031893283 -0.05666215
000170 d8 15 a2 bd 57 f2 44 3d e7 87 63 3d 6f ab 84 3d
       -0.079143226 0.048082676 0.05554953 0.06478011
000180 36 b1 a9 bc 59 61 11 bc 36 a9 d6 bd 5e 23 bb bd
       -0.020714384 -0.008873307 -0.10481493 -0.09137605
000190 95 6a c7 3c 70 ce 1e 3d e7 be c3 bc be f6 9c bd
       0.024342814 0.038771093 -0.02389474 -0.0766425
0001a0 13 40 a7 bd b2 0d 64 bc 47 e0 99 3d 11 bf 86 3d
       -0.08166518 -0.013919281 0.07513481 0.06579412
0001b0 df cd 6a 3d 2e 35 83 bd 43 50 06 bd a0 12 02 bb
       0.05732524 -0.064066276 -0.032791387 -0.0019847527
0001c0 1a ee 6a 3c 05 85 6c 3d 9d ec 4a 3d 71 06 0e 3d
       0.014338994 0.057744045 0.04954206 0.03467411
0001d0 29 ef 2e bd d9 d4 69 3b b3 f0 29 bd 8b f8 e0 bd
       -0.04270855 0.0035679846 -0.041489314 -0.10984906
0001e0 15 eb 8b 3d c9 c2 08 bd 90 cb 27 bd 33 46 b1 bd
       0.06831948 -0.033388887 -0.040965617 -0.086559676
0001f0 50 c5 bd bb a5 c0 c0 bd 60 bb 21 3d ff fa 38 bd
       -0.0057913437 -0.09411744 0.039485335 -0.045161244
000200 13 af a1 bd 3d f7 24 bd be d6 09 3d 11 af 81 bd
       -0.07894721 -0.040274847 0.03365206 -0.063322194
000210 fa 11 c3 bc af 02 c7 bc 08 8c a8 3d e2 da 5e bd
       -0.023812283 -0.024293272 0.08229834 -0.05440796
000220 64 e4 95 bd 42 1d 6e 3d 61 cc 27 3d da 43 59 3d
       -0.07318953 0.05813337 0.040966395 0.053043224
000230 ad eb 81 bc 06 ad 49 bd 44 10 17 3c 90 fd 9f bd
       -0.01585945 -0.049237274 0.009220187 -0.07812035
000240 a8 e3 91 bc ca bd 72 3c 28 7a d8 3c b0 45 30 bd
       -0.01780875 0.014815757 0.026425436 -0.04303521
000250 49 45 55 3c 39 6f d9 bc 7a a8 99 3d 4e f2 29 3c
       0.013017007 -0.026542293 0.075028375 0.010372711
000260 9d d5 41 3c be 52 81 bd 2c 68 98 bd c7 74 54 3d
       0.0118307145 -0.0631461 -0.07441744 0.05186918
000270 e3 a9 4d 3d a6 75 42 3d ad 03 e1 3c 67 94 a2 3d
       0.050210845 0.04747548 0.027467573 0.07938462
000280 d8 06 30 3d 02 40 00 3d c4 f3 5e bc 3f b4 d4 3d
       0.042975277 0.031311043 -0.013607923 0.10385942
000290 75 db 79 bc 21 73 b3 bd b1 5a 69 bd 63 96 52 bc
       -0.015250077 -0.087621935 -0.056971256 -0.012853238
0002a0 37 06 6f bd 25 7f 81 3d 5c 26 4d bd 67 fe ac bd
       -0.058355536 0.06323079 -0.05008541 -0.08446961
0002b0 70 24 7e 3d e3 0b 5f 3d d5 df e6 bc e7 30 c5 3d
       0.06204647 0.054454695 -0.028182903 0.09628468
0002c0 6d 6b 87 bd d1 a0 9d 3d eb 70 80 bd a8 16 d4 bc
       -0.06612287 0.07696689 -0.062715374 -0.02588971
0002d0 1c e4 b0 3d 35 33 ca 3c 9d 68 88 bd 73 45 0b 3a
       0.086372584 0.02468262 -0.066605784 0.0005312778
0002e0 74 e6 ac bd 38 bf 32 3d e3 04 98 bc 6c 9f a1 3d
       -0.08442393 0.04363939 -0.018557018 0.078917354
0002f0 85 9c 7f bd 3e f1 20 3c 13 50 0e bd 0a f5 af bc
       -0.062405128 0.009823142 -0.034744333 -0.021479148
000300 10 c5 98 3c 33 88 10 3d ee c3 88 bd 1a 9a 60 bd
       0.018648654 0.03528614 -0.066779956 -0.054834463
000310 8f 24 a0 3d 14 09 3d 3d a0 fc a5 bd ea e8 4c 3a
       0.07819473 0.046151236 -0.08104825 0.00078166893
000320 ca d7 6c 3d 3d 8e fa bc 4b db b5 bc f6 40 a5 3d
       0.05782298 -0.030585403 -0.022199294 0.08069031
000330 67 2d ae 3c ae 0e 06 3d 54 c3 43 bd 81 24 a5 3d
       0.021261884 0.032728843 -0.0477937 0.08063603
000340 05 9b 97 bd 52 13 11 bd e3 2d e1 3c f5 41 c2 bd
       -0.074026145 -0.035418816 0.0274877 -0.094852366
000350 46 8a 88 bc c6 1d 49 3d 0e a1 8a 3d ae e8 66 3d
       -0.016667496 0.04910066 0.06769 0.056374244
000360 99 04 9a bc 2b db af 3d d4 e8 43 3c 0e 6b b7 bd
       -0.01880102 0.08586725 0.011957366 -0.08955966
000370 e4 bf 20 bc 4f 4e 02 3c ca 85 86 3c 36 11 07 3d
       -0.009811375 0.007953241 0.016421217 0.032975398
000380 3f bf bb bc 8f ec 9b 3b 57 a6 a7 bd a5 b0 87 bd
       -0.022918342 0.0047584246 -0.08186024 -0.06625489
000390 73 95 86 3d a6 15 4e 3d 80 99 87 3d ea a6 9f bc
       0.06571474 0.050313614 0.06621075 -0.01948877
0003a0 8d 5a 98 bd 97 ed 18 bb ff 48 90 bd ce f6 ef bc
       -0.07439146 -0.0023334974 -0.07045173 -0.02929249
0003b0 5b 02 6c 3c 45 1a ac bd da e0 0d bd 32 c9 9f 3d
       0.014404858 -0.08403448 -0.034638263 0.07802047
0003c0 61 e0 89 bd e7 4f b4 bc 8a df 60 bd a2 b3 22 bd
       -0.0673225 -0.022010757 -0.054900683 -0.039722092
0003d0 58 2b fb bd 7e 0b 9e 3c 2c 5c b5 3d 35 9e be 3c
       -0.122641265 0.01929259 0.08855471 0.023268798
0003e0 0c 1d b9 bd 30 48 aa bd 01 91 ed bc e3 4f 5a bd
       -0.090387434 -0.0831455 -0.028999807 -0.053298842
0003f0 08 7d f5 bc 52 31 c5 3c f4 56 8e 3d 41 0a 9e 3d
       -0.029966846 0.02407137 0.06950179 0.077167995

lstm.bias_ih_l1 f4 [512]
000000 69 85 15 bd 0b 3e 4d ba d6 ad e5 3d 16 06 9a 3d
       -0.036504183 -0.00078293745 0.11214797 0.07520692
000010 2d 99 d8 3d 16 2b e2 3d 96 cb 79 3d 76 c2 1a 3e
       0.10576091 0.11043374 0.06098517 0.15113243
000020 61 ff 4e 3c fc 67 95 bc e5 6b 1d 3c 57 29 5a bd
       0.012634129 -0.01823806 0.009608244 -0.05326208
000030 6e fa c3 3d 94 53 06 3e 4d ff 2e bc b2 b3 84 3c
       0.0956925 0.1311782 -0.010680986 0.016198967
000040 e2 f8 d6 bc 1b c8 48 bc 04 21 32 bd f4 23 b4 3d
       -0.026241723 -0.01225474 -0.043488517 0.0879592
000050 4f f4 62 3d c2 28 84 bd 7e c2 02 3a c4 89 39 bc
       0.055408772 -0.064530864 0.0004988088 -0.01132435
000060 d0 59 32 3d 91 b4 e8 3d aa db 85 3d 07 08 09 3e
       0.043542683 0.11362565 0.06536038 0.13381968
000070 50 f1 93 bc 83 16 67 3c 7f 20 a9 3d 57 a3 d1 3c
       -0.018059403 0.014104488 0.08258151 0.025590582
000080 58 bc 53 bd 6c aa e1 3c bf 71 4f 3d 00 8c 80 3d
       -0.05169329 0.027547084 0.050645586 0.06276703
000090 77 17 31 3d ea f2 67 bd 4e d6 a9 3d de 99 44 3d
       0.04323527 -0.056628145 0.082928285 0.0479983
0000a0 d1 b3 ed 3c 18 50 e7 3d bd fd 1f 3d 7c 4e 92 3d
       0.029016407 0.112945735 0.039060343 0.07143876
0000b0 c2 2a f9 3c a5 6f 34 3d 36 30 0f bd 8d 0b 5f bd
       0.030415896 0.044051785 -0.034958087 -0.054454375
0000c0 5c 66 df bc 5d bb 33 bd 01 a0 28 bd 43 4e 8e 3d
       -0.027270488 -0.043879855 -0.041168217 0.06948521
0000d0 f9 e4 9a 3d 52 94 b3 bb fb c8 b4 3c c6 2d 8d 3e
       0.07563204 -0.0054803276 0.022068491 0.27573985
0000e0 f9 ea a4 3d a8 c2 c4 bc 22 c4 49 3c 79 3b 38 bd
       0.0805263 -0.0240186 0.012314828 -0.044978593
0000f0 f6 22 e8 3a 55 10 69 3d 79 18 90 3d 57 5f 5c bd
       0.0017710614 0.05690034 0.07035918 -0.05380186
000100 70 bc 7d 3d 83 78 e4 3c 54 22 9f 3d 1a 54 90 3d
       0.061947286 0.027889496 0.077702194 0.07047291
000110 27 0f 67 bd da 26 d6 3d 03 09 bc 3c 91 7d 93 3b
       -0.056410935 0.10456629 0.022953516 0.0045010527
000120 7a 96 d6 3d bd 2c 80 3d 90 3d 28 3c d4 51 bd 3c
       0.1047792 0.06258533 0.010268584 0.023110308
000130 48 13 06 3d b1 ed 06 3c 4c 0b e5 3b b0 21 ca 3d
       0.03273323 0.008235381 0.006989872 0.09869707
000140 58 52 1b 3d 22 1b 0e bd 2b f0 ce 3d a8 fe 76 3c
       0.037920326 -0.034693845 0.10104402 0.015075363
000150 47 55 92 bc 87 b2 5c 3c 5b 8c 9f 3d d6 48 4e 3d
       -0.017862929 0.013470299 0.077904426 0.05036243
000160 91 46 b4 3d c6 cb 0c 3e d9 b1 84 3d 0a e5 fe bc
       0.08802522 0.13749608 0.06479234 -0.031115074
000170 59 38 da 3d f0 e6 cb 3c ae 2d 69 bd c0 ac c6 bb
       0.10655279 0.024890393 -0.05692833 -0.006063074
000180 07 65 a3 3d 60 d1 4b 3c 1d 37 01 bd 8d b8 e8 3d
       0.07978254 0.012440056 -0.0315467 0.11363325
000190 f7 16 a5 bb ea 6a a5 bc ed 1e 0a bd 85 ad bc bc
       -0.005038138 -0.020192582 -0.0337209 -0.02303196
0001a0 6a ed c5 3d 29 7a 97 3c fc fe 39 bd 25 ae 7f 3d
       0.09664424 0.018490868 -0.045409188 0.062421937
0001b0 27 53 58 bd d7 cb 51 bd b7 1d 28 3c ee f3 59 bb
       -0.052813675 -0.051219787 0.010260991 -0.0033256966
0001c0 48 c8 57 3d 19 4f 3d bd a7 77 0a bc 46 0a 7b b9
       0.052681237 -0.04621801 -0.008451379 -0.00023941052
0001d0 dd 30 fb bb 1c aa ea bc f8 55 3e 3d 61 5e 66 3d
       -0.007665737 -0.028645568 0.046468705 0.05624235
0001e0 71 50 38 3e c2 91 dc 3c 39 72 18 3d 7a c5 38 3e
       0.17999436 0.026924971 0.037218306 0.18044081
0001f0 a2 d5 40 bd fe b4 18 3d 42 2b 16 3d da 5c 18 3d
       -0.047078736 0.037281983 0.036662348 0.037197925
000200 b3 eb 12 3d 77 44 da bb b3 d7 1d bd 6a d3 66 3d
       0.03586931 -0.0066609937 -0.038535785 0.056353964
000210 e7 c3 92 bd 3f db 9e bd 22 e6 a0 bc 76 9e d9 bd
       -0.07166272 -0.077566616 -0.019640986 -0.10625927
000220 86 f3 db 3c 63 36 28 3d 5d e3 6e bd cc 75 18 bd
       0.02684952 0.041067492 -0.0583223 -0.037221715
000230 f2 a5 cf bc 17 b3 ad 3d ff f0 73 bd 5d 8f 97 bd
       -0.025347684 0.08481424 -0.059556004 -0.07400391
000240 5d dc a8 bd 2e ee 74 bd 81 f4 bf 3c 49 79 c9 bd
       -0.08245156 -0.05979746 0.023432018 -0.098375864
000250 51 6d 8a bc 7f e7 3f bc e5 b9 45 bd 60 0d cb bc
       -0.01689783 -0.011712908 -0.048272986 -0.024786651
000260 1c 96 04 bd 06 cd 88 bd e4 32 ca bc 9a f3 28 bd
       -0.032369718 -0.0667973 -0.02468247 -0.04124794
000270 90 d7 94 bd 3c 30 d1 3c 3a ea d6 3c 48 82 6b 3d
       -0.07267678 0.025535695 0.026234735 0.057497293
000280 d0 60 54 3c 43 2b 50 3d 65 c7 a0 bc 8f ce 86 bc
       0.012962535 0.050822508 -0.019626329 -0.016455917
000290 30 60 93 3d ed 2c 77 3d c3 48 6e bd da 72 8d bc
       0.07196081 0.06034558 -0.05817486 -0.01726668
0002a0 74 bc 88 3d a9 6d 9b 3c 37 d9 a7 3d db af 24 3c
       0.066765696 0.018973188 0.08195727 0.010051693
0002b0 73 ef 91 3d 53 b0 27 3c 44 e7 7e 3d 5c 71 3c 3d
       0.071257494 0.01023491 0.06223227 0.046006545
0002c0 6c 43 c5 bc e9 c3 01 bd 8c 11 8b 3d b3 ba 89 bb
       -0.02408 -0.031680975 0.06790456 -0.0042031645
0002d0 34 81 51 bd 9d 21 6f 3c e0 0d 92 bc 9d e6 5d be
       -0.05114861 0.014595416 -0.017828882 -0.21670003
0002e0 d7 4a c0 bc dd 59 81 bd d2 d9 06 3d a6 fe 3c bd
       -0.023473186 -0.06315968 0.032922573 -0.04614129
0002f0 ae b6 19 bd 24 4e ed 3c 94 0c 46 3b 40 cd 81 bd
       -0.037527733 0.028967924 0.00302199 -0.063379765
000300 87 38 e8 3c c8 ec 8b 3d 23 d6 89 bd 16 71 8b b9
       0.028347267 0.06832272 -0.067302965 -0.00026596402
000310 18 e0 8a 3c f2 62 3c bd 67 83 97 3d 1e 6a 1f bd
       0.01695256 -0.0459928 0.0739811 -0.03891956
000320 7b 98 f0 3c 17 42 0f bd 25 d0 df 3c 3f 63 9f bd
       0.029369583 -0.034975138 0.02732093 -0.077826016
000330 01 e1 8d 3d 43 d8 26 3d 54 18 b2 3c ac 3e 81 bd
       0.06927682 0.040733587 0.021740116 -0.06310782
000340 75 bf cf 3c f2 83 10 bd 99 bc 83 bc 08 19 95 bd
       0.025359849 -0.035282083 -0.016081141 -0.07280165
000350 ba ca 66 3c 98 7c c1 3b 9a 2b a0 3d 30 75 98 bd
       0.01408642 0.0059047453 0.07820816 -0.07444227
000360 ab 43 14 bd 9b 4e 01 bd 5b e8 70 3d 57 74 bb 3b
       -0.036197346 -0.031569105 0.05881534 0.005720656
000370 bf b3 4f 3d b8 ca 19 bd 57 ff 69 bd 29 39 f5 bc
       0.05070853 -0.037546843 -0.057128277 -0.029934483
000380 8b a4 b6 3d 47 d3 0a 3d 5b bb 23 bd 72 ec 06 bd
       0.08918103 0.033892896 -0.039973598 -0.032940336
000390 3b 9f 80 bd cf dd 87 bd bc 1e 1a 3c 20 11 ad 3d
       -0.06280371 -0.066341035 0.009406742 0.08450532
0003a0 8f 81 29 bd c6 11 f7 3c 68 11 2e bd 38 b5 d1 3c
       -0.041383322 0.030159842 -0.04249707 0.025599107
0003b0 24 dc 2e bc d7 a4 0c bd b8 54 99 3d 34 c2 ca 3b
       -0.010672603 -0.03433689 0.07486862 0.0061877016
0003c0 9c 14 2a 3d 8a bf 8d 3c b1 2e 77 bd 30 23 89 bd
       0.04152356 0.017303247 -0.060347263 -0.066961646
0003d0 a3 e5 99 bd a8 fb 19 bd 09 bc 3a bc 66 c4 1d bd
       -0.07514503 -0.037593514 -0.01139737 -0.03851738
0003e0 b0 40 19 be b8 68 0a 3d ed 1f b3 bb c5 0c 3a bc
       -0.14966083 0.033791274 -0.0054664523 -0.011355584
0003f0 9a a9 97 bd 10 67 32 3d 63 79 75 bd b9 60 a3 3c
       -0.07405396 0.04355532 -0.059930217 0.019943582
